final_model.pth (torch, 156080 bytes, 10 tensors)

conv1.weight f4 [16, 1, 3, 3]
0	0x3e379c77	0.1793078
1	0x3e3edc42	0.18638709
2	0x3f35bd29	0.7099176
3	0x3be7c00b	0.007072454
4	0x3e547f07	0.20751582
5	0xbdc8c722	-0.098036066
6	0xbea16a35	-0.31526342
7	0xbe9b54c5	-0.30338112
8	0xbeb17243	-0.34657487
9	0x3e28e401	0.16493227
10	0x3eea0e0e	0.45713848
11	0xbe1217eb	-0.14266936
12	0x3eddcf29	0.43322113
13	0x3edfa746	0.43682307
14	0x3f1fe05f	0.6245174
15	0x3f349f23	0.70555323
16	0x3f7af86e	0.98035324
17	0x3f41e78a	0.75743926
18	0xbdbc9807	-0.092086844
19	0xbe07fd3f	-0.132802
20	0xbe6acc1a	-0.22929421
21	0xbeea0c76	-0.45712632
22	0xbefd3ffd	-0.49462882
23	0xbea69ceb	-0.32541594
24	0x3e34867f	0.17629431
25	0x3f20c6f1	0.6280356
26	0x3f499489	0.7874227
27	0xbf1b761a	-0.60727084
28	0xbec1ce54	-0.37852728
29	0xbe370335	-0.17872317
30	0xbe645e8c	-0.22301692
31	0xbecc7a86	-0.39937228
32	0xbdd4b381	-0.103858
33	0x3f01fe66	0.50778806
34	0x3f487b9e	0.78313625
35	0x3f668298	0.9004302
36	0x3f5afc4d	0.8554123
37	0x3ec37c6e	0.3818087
38	0x3e902bf5	0.28158537
39	0x3d35a53f	0.044347044
40	0x3e638e85	0.22222336
41	0xbe84eb62	-0.25960833
42	0xbeb5d360	-0.3551283
43	0xbef7df0c	-0.4841236
44	0xbef88b35	-0.48543707
45	0xbde94417	-0.1138994
46	0xbe9f003c	-0.31054866
47	0x3e6fbfa6	0.23412952
48	0xbf0ecca4	-0.55781007
49	0xbeaf95f2	-0.34294087
50	0x3f14ba51	0.58096796
51	0xbf1d0310	-0.613328
52	0xbda4b0b9	-0.0804152
53	0x3edfe7e2	0.437316
54	0x3f507a91	0.8143702
55	0xbece8ca4	-0.40341675
56	0xbea5fe59	-0.32420614
57	0x3c332776	0.010934701
58	0xbdc59572	-0.09647645
59	0x3adbe9a7	0.0016778008
60	0x3e9a7c08	0.30172753
61	0x3e504b2f	0.2034118
62	0xbef0b825	-0.4701549
63	0x3f3c5d71	0.7358008
64	0x3e8928da	0.2678898
65	0xbe2d920f	-0.16950248
66	0x3ec2c6b1	0.38042215
67	0x3ec44595	0.38334337
68	0xbf124555	-0.5713704
69	0xbebf2103	-0.37329873
70	0x3e17cacd	0.14823456
71	0xbf4829d6	-0.78188837
72	0x3f45b87e	0.7723464
73	0x3eed8b94	0.46395552
74	0xbee0e54f	-0.4392495
75	0x3ebee075	0.37280622
76	0x3ce9155f	0.028452573
77	0x3e851ba6	0.25997657
78	0xbf6d367d	-0.9266127
79	0xbe8f461c	-0.27983177
80	0x3eca191f	0.3947229
81	0x3f047770	0.5174475
82	0x3ef67b86	0.48141116
83	0x3f30964d	0.6897934
84	0x3f4d396d	0.8016575
85	0x3f71577a	0.94274104
86	0x3f928d9e	1.1449468
87	0x3e05c15a	0.13062039
88	0x3f6ff1fa	0.937286
89	0x3f734326	0.95024335
90	0x3edbd4b9	0.42935732
91	0x3e038d74	0.12846929
92	0xbeabe958	-0.33576465
93	0x3e44d383	0.1922131
94	0x3e1ce87c	0.15323061
95	0xbee21d42	-0.44162947
96	0x3f354e41	0.7082253
97	0x3ddc9fe7	0.107726865
98	0xbebe6aec	-0.3719095
99	0xbdef34b7	-0.116799764
100	0xbe7d9b88	-0.24766362
101	0x3df527b9	0.11970467
102	0x3e2f1fc2	0.17101958
103	0x3e44ca2e	0.1921775
104	0xbe888ef6	-0.2667157
105	0xbdf93d03	-0.1216984
106	0xbdb7ffb2	-0.08984317
107	0xbec1806f	-0.377933
108	0x3d46aff3	0.048507642
109	0xbed27602	-0.41105658
110	0xbf169d10	-0.5883341
111	0x3eeff3d3	0.4686571
112	0x3e1aabbf	0.15104578
113	0xbe6c5921	-0.23080875
114	0x3f332600	0.6997986
115	0x3e873ecb	0.26415095
116	0x3d906c7c	0.07051942
117	0x3e9f577d	0.31121436
118	0x3df26519	0.11835689
119	0x3f3232e3	0.69608897
120	0xbeef1350	-0.46694422
121	0xbe2e7a50	-0.17038846
122	0x3eafd926	0.3434536
123	0xbf020eda	-0.5080391
124	0x3e1baf28	0.15203536
125	0xbeaf7a79	-0.34273127
126	0x3f1bff72	0.60936654
127	0x3e23ace1	0.15983917
128	0xbf0e8dee	-0.5568532
129	0x3def3229	0.11679489
130	0xbe48919d	-0.19586797
131	0xbf088889	-0.53333336
132	0x3f090578	0.5352397
133	0x3e6ac2a3	0.2292581
134	0xbe26269c	-0.16225666
135	0xbf3ecd01	-0.7453156
136	0x3e2c6277	0.16834436
137	0x3f20c8cc	0.6280639
138	0xbe820dab	-0.25401053
139	0xbe640fdc	-0.22271675
140	0x3f0d0c39	0.55096775
141	0xbf505a2f	-0.8138761
142	0x3eadfc87	0.33981726
143	0x3f0ca525	0.5493949

conv1.bias f4 [16]
0	0x3e971559	0.29508474
1	0x3f757f00	0.9589691
2	0xbe5b671a	-0.21426049
3	0x3ead71c7	0.33875868
4	0x3e282368	0.16419756
5	0xbec54d53	-0.38535556
6	0xbd555bc1	-0.052089456
7	0xbca784f3	-0.020449137
8	0x3ec94f08	0.3931811
9	0xbf2198ea	-0.63123953
10	0x3f0b47a3	0.54406184
11	0xbc8fc26f	-0.017548768
12	0x3f11ec4c	0.57001185
13	0x3d8b7539	0.06809468
14	0x3e158390	0.14600968
15	0x3e376c15	0.17912324

conv2.weight f4 [32, 16, 3, 3]
0	0x3e181f73	0.14855747
1	0xbe813d4f	-0.25242087
2	0xbdc94935	-0.09828416
3	0x3db79e08	0.08965689
4	0xbe39e579	-0.18153943
5	0xbcb057d1	-0.02152625
6	0x3e41762e	0.18892738
7	0x3c5c7d76	0.013457647
8	0x3cd6c114	0.026215114
9	0x3f035ddf	0.5131511
10	0x3e96d20c	0.29457128
11	0xbf0e3264	-0.5554564
12	0x3ebe588f	0.3717694
13	0x3e69336b	0.2277352
14	0xbf17cc8b	-0.5929648
15	0x3f02b8da	0.5106331
16	0x3ebcfcc9	0.3691161
17	0xbf13baaf	-0.5770673
18	0x3df19031	0.117950805
19	0x3eb26106	0.34839648
20	0xbdf40771	-0.11915482
21	0x3e93e93c	0.2888888
22	0xbd3e3faa	-0.046447434
23	0xbeb16253	-0.34645328
24	0xbe0a19a8	-0.1348635
25	0xbeb275b2	-0.3485542
26	0xbf6124ec	-0.87946963
27	0x3e96c95e	0.29450506
28	0xbe2fc179	-0.17163648
29	0xbe696543	-0.22792535
30	0x3eb5de9a	0.35521394
31	0xbcae3e33	-0.021269893
32	0xbe84371f	-0.25823304
33	0x3eb2ab81	0.34896472
34	0xbe5322be	-0.20618722
35	0xbeac1278	-0.3360784
36	0x3dbc2be5	0.0918806
37	0x3d5cf80c	0.053947493
38	0xbec1a92b	-0.37824377
39	0x3d2cb238	0.04216215
40	0x3d07a8f7	0.03312012
41	0xbd8c1730	-0.0684036
42	0xbc00879f	-0.007844835
43	0x3e0d0002	0.13769534
44	0x3c4d0136	0.012512496
45	0x3e9f98fa	0.311714
46	0x3e640ffe	0.22271726
47	0xbe9801bd	-0.29688826
48	0x3e51d48e	0.2049124
49	0xbcdaf54d	-0.026728297
50	0xbee7b20c	-0.45253026
51	0x3e50d14e	0.20392343
52	0xbe94d021	-0.2906504
53	0xbeb21d0c	-0.34787786
54	0x3d03a606	0.032140754
55	0x3b08384d	0.002078551
56	0xbf42cd10	-0.7609415
57	0x3d52a16c	0.051423475
58	0x3d5c40da	0.053772785
59	0xbf0b1ee5	-0.54344016
60	0xbd16dfec	-0.036834642
61	0x3e6a584e	0.22885248
62	0xbf12031c	-0.57035995
63	0x3ea5ab36	0.32357186
64	0xbe5584a9	-0.20851387
65	0xbf276d7b	-0.6540143
66	0x3ea3d535	0.31998602
67	0xbe6aea6a	-0.22940984
68	0xbe7f4f4d	-0.24932595
69	0x3e08a4c6	0.13344106
70	0x3d54ecd3	0.051983666
71	0xbe1b82e9	-0.15186657
72	0xbd57bab5	-0.052668292
73	0xbd7b1846	-0.061302446
74	0xbe909088	-0.2823527
75	0x3df68767	0.12037545
76	0x3c667bba	0.014067585
77	0xbc78260e	-0.015145792
78	0x3cddf18c	0.027092718
79	0x3d050a53	0.03248055
80	0xbe1742a6	-0.14771518
81	0x3f2d5466	0.67706907
82	0x3e24db30	0.16099238
83	0xbf88b682	-1.0680697
84	0x3f0706fe	0.52745044
85	0x3dd1eb84	0.10249999
86	0xbf84a2fa	-1.0362236
87	0x3f0e47a3	0.5557806
88	0x3dccb334	0.09995118
89	0xbf86f427	-1.0543259
90	0x3df30e89	0.11868007
91	0x3bc90e84	0.0061357636
92	0xbe71702f	-0.23577951
93	0x3e111f3d	0.14172073
94	0x3e02d098	0.12774885
95	0xbdc30e89	-0.09524257
96	0x3e58c51a	0.21168938
97	0x3e8c1037	0.2735612
98	0xbcde9c5c	-0.027174167
99	0x3dcb8211	0.099369176
100	0x3d8c2195	0.06842343
101	0x3e0e8db9	0.1392125
102	0x3cf41df5	0.02979944
103	0x3c2f4f8c	0.010700118
104	0x3d83b574	0.06431094
105	0xbe24189f	-0.16025017
106	0xbe1d448b	-0.15358178
107	0xbcc8cb11	-0.024510892
108	0x3ceef325	0.029168675
109	0x3e268607	0.16262065
110	0xbe32d995	-0.17465813
111	0x3e2c4034	0.16821367
112	0x3ea4f421	0.32217506
113	0xbd871c1e	-0.0659716
114	0x3e64101b	0.22271769
115	0x3e82d43a	0.2555254
116	0xbe0b55c2	-0.13606933
117	0x3e83f249	0.25770786
118	0xbf2f2a18	-0.68423605
119	0xbee2664c	-0.4421867
120	0x3e6115ba	0.21980944
121	0xbed68814	-0.41900694
122	0xbe819e42	-0.25316054
123	0x3ebb652a	0.3660062
124	0xbedae24a	-0.4275077
125	0xbecf361f	-0.4047098
126	0x3e529c61	0.20567466
127	0x3e00f493	0.12593298
128	0xbe74b5c5	-0.23897465
129	0x3e9a8065	0.30176082
130	0x3df46878	0.11933988
131	0xbe221a86	-0.1583043
132	0x3e76d5be	0.24104974
133	0x3e203f78	0.15649211
134	0xbe0fcb77	-0.1404246
135	0x3f5314a9	0.824534
136	0xbfc431e1	-1.5327722
137	0xbfad7620	-1.3551674
138	0x3f6e1765	0.9300445
139	0xbfa1bc39	-1.2635566
140	0xbfae5396	-1.3619258
141	0x3f8ae5dc	1.0851398
142	0xbfa749dd	-1.3069416
143	0xbf876971	-1.0579053
144	0xbceb3289	-0.02871062
145	0xbc537838	-0.01290708
146	0xbda1e760	-0.079054594
147	0x3b89e1a8	0.0042078085
148	0x3e1d20fe	0.15344617
149	0xbe027980	-0.12741661
150	0x3e75acf8	0.23991764
151	0x3ddf7641	0.10911227
152	0x3d6fdc7d	0.058559883
153	0xbe670ee0	-0.22564268
154	0x3e9fede6	0.3123619
155	0x3d02528c	0.031817004
156	0xbe432a36	-0.19059071
157	0x3da4a4c2	0.080392376
158	0xbe5614ec	-0.20906419
159	0xbf766367	-0.96245426
160	0xbe8d31ef	-0.2757716
161	0xbeccb2f3	-0.39980277
162	0xbe233623	-0.1593862
163	0xbe38a297	-0.18030773
164	0x3bed3e35	0.0072400817
165	0xbed24d15	-0.41074434
166	0xbe33bc2a	-0.17552248
167	0xbea9a1ec	-0.3313135
168	0xbedf7649	-0.43644932
169	0xbe56950c	-0.20955294
170	0xbe446ce9	-0.19182171
171	0xbdfc91c2	-0.123324886
172	0x3dc8476a	0.09779246
173	0xbd9f692d	-0.077837326
174	0xbe7b6900	-0.24551773
175	0x3c87201a	0.0164948
176	0xbe34e2a0	-0.17664576
177	0xbef61073	-0.48059425
178	0xbd9aa09f	-0.07550167
179	0xbea4d824	-0.32196152
180	0x3e530b5e	0.20609805
181	0xbe85f100	-0.2616043
182	0x3e66f8be	0.22555825
183	0x3edad7f3	0.4274288
184	0xbe3240f5	-0.17407592
185	0x3e83c6fb	0.25737748
186	0x3ef9caf0	0.48787642
187	0xbdf50ea7	-0.11965685
188	0x3ed0a9ef	0.4075465
189	0xbe91cd38	-0.28476882
190	0xbd751890	-0.059837878
191	0xbdd4c96a	-0.10389979
192	0xbe7ee14d	-0.24890633
193	0xbcf25389	-0.029580848
194	0xbd3e1729	-0.046408806
195	0xbe680661	-0.22658683
196	0x3db9f590	0.090800405
197	0xbe1d3bef	-0.15354894
198	0x3ec5fb32	0.3866821
199	0xbefc0a6d	-0.49226704
200	0x3f3b3d60	0.73140526
201	0x3ed96dfd	0.42466727
202	0xbee1348d	-0.43985406
203	0x3f244fa1	0.64184004
204	0x3efe8603	0.49711618
205	0xbe9effec	-0.31054628
206	0x3f273294	0.6531155
207	0x3ee02a35	0.437822
208	0xbedeec25	-0.4353954
209	0x3f0baaf0	0.54557705
210	0x3f1ef80a	0.6209723
211	0xbe8f8ca6	-0.28036994
212	0x3f119bd5	0.56878406
213	0x3f5006c1	0.81260306
214	0xbe83eaf1	-0.25765184
215	0x3f3ffa37	0.7499117
216	0xbe80cfdd	-0.25158587
217	0xbe3f86ba	-0.18703738
218	0xbd523414	-0.051319197
219	0x3e49dea3	0.19713835
220	0x3d2bc92c	0.0419399
221	0x3da5f185	0.08102707
222	0x3d5a82af	0.053347286
223	0x3d7777f0	0.060417116
224	0xbd1197fd	-0.035545338
225	0xbf06b185	-0.52614623
226	0xbd54e24b	-0.051973622
227	0xbe467c71	-0.19383408
228	0xbdb146fa	-0.08656116
229	0xbe2ee93e	-0.17081162
230	0xbe5ec90d	-0.21756382
231	0x3e3b8c8b	0.18315332
232	0xbf1133f9	-0.5671993
233	0xbec4f3a8	-0.38467145
234	0x3e95b157	0.29236862
235	0xbeb82cda	-0.3597172
236	0x3e906477	0.2820165
237	0x3eae5bd0	0.34054422
238	0xbeba4443	-0.36380205
239	0x3ec3feed	0.3828043
240	0x3ecacc4a	0.39608985
241	0xbef320b3	-0.47485885
242	0x3ec6b748	0.38811707
243	0xbe394a50	-0.18094754
244	0xbe088486	-0.13331804
245	0xbe367641	-0.17818548
246	0xbd9e3a0c	-0.07725915
247	0xbd8291e7	-0.06375485
248	0xbdc7555b	-0.09733077
249	0x3cfe0f4f	0.03101316
250	0xbd335d7b	-0.04379032
251	0xbc9b8dd9	-0.018988537
252	0x3ec9957c	0.3937186
253	0xbe915228	-0.28382993
254	0x3ec61b8e	0.38692898
255	0x3e4e6d51	0.20158888

conv2.bias f4 [32]
0	0x3da353dc	0.07974979
1	0xbe2cad02	-0.16862872
2	0x3e004126	0.12524852
3	0x3d9f5ba0	0.07781148
4	0xbf535ccf	-0.8256349
5	0xbe1b5d3c	-0.15172285
6	0x3ee0ee9d	0.43932047
7	0x3e928573	0.2861744
8	0xbd465b03	-0.04842664
9	0xbdaf70ec	-0.0856646
10	0xbdc54cf4	-0.09633818
11	0xbeb57cdc	-0.35446823
12	0x3d5faa36	0.054605685
13	0xbe8d16bf	-0.27556416
14	0x3daad3a8	0.083411515
15	0x3d4a804a	0.049438752
16	0xbdaa962a	-0.08329423
17	0x3e55f918	0.20895803
18	0x3e8420b7	0.2580621
19	0xbddf9903	-0.109178565
20	0x3e3b28b9	0.18277253
21	0xbeaa59f2	-0.33271748
22	0x3df17871	0.117905505
23	0xbf0bf2a5	-0.5466712
24	0xbea642e4	-0.32472908
25	0xbda2e011	-0.079528935
26	0xbe264375	-0.1623667
27	0xbebce258	-0.36891437
28	0xbebbcbf9	-0.36679056
29	0x3c121eee	0.008918507
30	0x3e6830b6	0.22674832
31	0x3d0fb3a5	0.03508343

conv3.weight f4 [64, 32, 3, 3]
0	0x3e49f86b	0.1972367
1	0x3f066e8f	0.5251245
2	0x3f294e0b	0.6613471
3	0x3e2f2aa6	0.17106113
4	0x3f17ea94	0.5934231
5	0x3f426442	0.7593423
6	0x3e94dd9a	0.2907532
7	0x3f2b9269	0.6702028
8	0x3f550628	0.8321252
9	0x3dafc817	0.08583086
10	0xbea101cb	-0.3144668
11	0xbe897904	-0.2685014
12	0x3dd749b2	0.10512103
13	0xbea670a6	-0.3250782
14	0xbea4b31e	-0.32167906
15	0xbc68c9fa	-0.014208311
16	0xbee31548	-0.44352174
17	0xbeee002c	-0.46484506
18	0x3e83c9c9	0.25739887
19	0x3e6a283d	0.22866912
20	0x3cf67ca3	0.030088728
21	0x3e00c192	0.12573841
22	0x3e043f54	0.12914783
23	0xbe15bbcd	-0.14622422
24	0x3cbf4967	0.02335043
25	0x3dacb032	0.08432044
26	0xbe441842	-0.19149879
27	0x3e94e181	0.29078296
28	0x3dbddaad	0.09270225
29	0x3c794d0b	0.015216122
30	0x3ee4343d	0.44571105
31	0x3e5c7d25	0.21532114
32	0x3eac2623	0.33622846
33	0x3eb930be	0.3617
34	0x3e4907df	0.19631909
35	0x3e497142	0.1967211
36	0xbe98c3d1	-0.29836896
37	0xbdc209a0	-0.09474492
38	0x3e642164	0.22278363
39	0xbed541c5	-0.4165174
40	0xbd5578c9	-0.052117143
41	0x3dc15f56	0.09442012
42	0xbed85b6b	-0.42257246
43	0xbd35db66	-0.044398688
44	0x3e00bb5b	0.1257147
45	0x3ecb368f	0.39690062
46	0x3eb545a8	0.35404706
47	0x3ef14ca3	0.47128782
48	0x3e9c0657	0.30473587
49	0x3e2defd3	0.16986017
50	0x3eb88f70	0.36046934
51	0x3e1b9ebd	0.15197273
52	0x3e48aa9e	0.19596335
53	0x3e85c31a	0.26125413
54	0xbeafd197	-0.34339592
55	0xbf2bed0c	-0.6715858
56	0xbf09759a	-0.5369507
57	0xbeeb577e	-0.4596519
58	0xbf264fae	-0.6496533
59	0xbf2b73af	-0.66973394
60	0xbed17b44	-0.40914357
61	0xbf256f2c	-0.6462276
62	0xbf343492	-0.70392716
63	0xbb2dc4d6	-0.0026515028
64	0xbd242653	-0.04007561
65	0x3da9bd8c	0.08288106
66	0xbe027bf5	-0.12742598
67	0xbd7ca50e	-0.061680846
68	0x3e30775b	0.1723303
69	0xbe8d22c5	-0.2756559
70	0xbecc5afc	-0.39913166
71	0xbde89f12	-0.11358465
72	0xbace5dd5	-0.0015744517
73	0xbce543de	-0.027986463
74	0xbd546c47	-0.051861074
75	0xbd68b455	-0.056812603
76	0xbc234bcd	-0.009966803
77	0x3d313a18	0.043268293
78	0xbcbd666e	-0.023120131
79	0xbba21d74	-0.0049473587
80	0xbd202640	-0.039098978
81	0xbe5e0980	-0.21683311
82	0x3e003674	0.12520772
83	0x3c95731d	0.018243367
84	0xbe4178ef	-0.18893789
85	0x3da78a0e	0.08180629
86	0x3d380f91	0.04493672
87	0xbe8b7910	-0.272408
88	0x3d4d1a4f	0.050073918
89	0xbd91dedc	-0.07122585
90	0xbfb2cedf	-1.3969382
91	0xbf5e333f	-0.86796945
92	0xbf256197	-0.64602035
93	0xbfdfe58f	-1.7491931
94	0xbf8f0a44	-1.1175008
95	0xbf34484f	-0.70422834
96	0xbfffa94a	-1.9973538
97	0xbfaad3cd	-1.3345886
98	0xbf2036e3	-0.6258375
99	0xbede9b28	-0.4347775
100	0xbe0f4bd9	-0.13993777
101	0x3ea8e43c	0.3298663
102	0xbf19b166	-0.60036314
103	0xbe29fc48	-0.16600144
104	0x3de2ba12	0.11070646
105	0xbee63ca6	-0.44968146
106	0xbd06287d	-0.032753456
107	0x3ebb284d	0.36554185
108	0xbc9de95b	-0.019276312
109	0xbd2d7808	-0.0423508
110	0x3b2f9dd9	0.0026796965
111	0xbd1fcbf4	-0.039012864
112	0xbc8a8c98	-0.016912743
113	0x3c52738e	0.012844933
114	0xbd63932b	-0.055560272
115	0x3cb0bf56	0.021575611
116	0x3d0d2a14	0.034463957
117	0xbe23fd4e	-0.16014597
118	0xbe13d9d8	-0.1443857
119	0xbeb61dcd	-0.3556961
120	0xbce0fa91	-0.02746323
121	0xbd98f394	-0.07468334
122	0xbe92eb6d	-0.2869524
123	0xbdd98b07	-0.106222205
124	0xbdc3dece	-0.09563981
125	0xbec7c68d	-0.3901867
126	0x3ec6ddd4	0.38841116
127	0x3eb1ebb0	0.34750128
128	0x3f05363c	0.5203588
129	0x3e95d9a3	0.29267606
130	0x3ea0a396	0.31374806
131	0x3ee21ab5	0.44161
132	0x3ef84140	0.48487282
133	0x3f0a63d8	0.540586
134	0x3f147bb8	0.5800128
135	0xbd8f5c2d	-0.07000003
136	0xbb9c81d3	-0.0047762184
137	0x3c2af9c1	0.0104355225
138	0xbd35ab3f	-0.044352766
139	0xbd866464	-0.06562117
140	0x3a552db6	0.00081321166
141	0x3c901bda	0.017591406
142	0xbcba95a3	-0.02277643
143	0xbcc24892	-0.023716245
144	0xba0b28d0	-0.0005308511
145	0xbbbcda8e	-0.0057633584
146	0x3cf3dcc2	0.029768351
147	0xbd8076c0	-0.0627265
148	0x3c3ab7e1	0.011396379
149	0x3d3e3822	0.04644025
150	0xbcdafaa5	-0.026730845
151	0x3d0d129f	0.034441587
152	0x3c9325fd	0.01796245
153	0xbdce7f44	-0.10082868
154	0xbe2b5b3f	-0.16734026
155	0xbe3bd79e	-0.1834397
156	0xbda78a80	-0.08180714
157	0xbe537602	-0.20650485
158	0xbe566be6	-0.20939597
159	0x3a69757e	0.00089057523
160	0xbe2a26a1	-0.16616298
161	0xbe258cb1	-0.16166951
162	0x3dde5f80	0.10858059
163	0xbaa11e64	-0.0012292382
164	0x3db524e1	0.08844925
165	0x3e53e084	0.20691115
166	0x3e1c80b2	0.15283468
167	0x3e4ea1bd	0.20178886
168	0x3e483825	0.19552667
169	0x3decb71b	0.11558362
170	0x3ed573ed	0.41690007
171	0x3ef942bd	0.4868373
172	0x3f21008a	0.6289145
173	0x3f00f5d6	0.50375116
174	0x3e6f4a26	0.23368129
175	0x3ef332bd	0.47499648
176	0x3e9f29fb	0.31086716
177	0x3e65af9f	0.22430275
178	0x3ebc6a39	0.3679979
179	0x3eb60a92	0.3555494
180	0x3bf97b5d	0.007613583
181	0xbea7c72f	-0.32769153
182	0xbe9aca8e	-0.30232662
183	0x3d849735	0.06474153
184	0xbe3b1b79	-0.18272199
185	0xbe3f4ca6	-0.18681583
186	0x3d595569	0.05305997
187	0xbe765347	-0.24055205
188	0xbe63e53c	-0.22255415
189	0x3ed4a126	0.41529197
190	0x3eedde9b	0.46458897
191	0x3ebdb8bd	0.37055007
192	0x3ea83472	0.32852513
193	0x3ee3b31f	0.44472596
194	0x3e66b457	0.22529732
195	0x3e55ec27	0.20890866
196	0x3e82676a	0.25469524
197	0x3da3f79e	0.080062136
198	0x3d93d471	0.07218254
199	0x3d4ba83c	0.049720988
200	0x3de00578	0.10938543
201	0x3db7ddef	0.08977877
202	0x3e4fdee7	0.20299874
203	0x3dfa1f6e	0.12213026
204	0x3e44837b	0.19190781
205	0x3e540854	0.20706302
206	0x3e3aede8	0.18254817
207	0x3e4de27b	0.20105927
208	0xbca79357	-0.020456
209	0xbc948ea9	-0.018134432
210	0x3d746af6	0.05967232
211	0xbca4b9f3	-0.020108199
212	0xbd46ee1d	-0.048566926
213	0xbd34ad8a	-0.044110812
214	0xbe317073	-0.17328052
215	0xbe21945d	-0.15779252
216	0xbe7ee346	-0.24891385
217	0xbe94c822	-0.2905894
218	0xbe8ad09c	-0.2711228
219	0xbe262566	-0.16225204
220	0xbeb1705b	-0.34656033
221	0xbe5c1e5f	-0.2149596
222	0xbe226e45	-0.15862377
223	0xbea47318	-0.3211906
224	0xbe1b6973	-0.15176944
225	0xbd0903e3	-0.033450972
226	0x3d319b72	0.043361135
227	0xbbfa8579	-0.0076453057
228	0x3d23e449	0.04001263
229	0x3cdbc35c	0.026826553
230	0xbcc7aef9	-0.024375426
231	0x3bf2b63c	0.007406978
232	0x3d67b8dc	0.05657278
233	0xbc5a7819	-0.013334298
234	0x3f036c2d	0.5133694
235	0x3e932992	0.28742653
236	0x3f46efdd	0.7770975
237	0x3ebe43d2	0.37161118
238	0x3e1c211b	0.15247004
239	0x3f097c5e	0.53705394
240	0x3d2e80c1	0.042603258
241	0x3d5550bf	0.05207896
242	0x3ec04906	0.37555712
243	0x3eefd7d4	0.4684435
244	0x3f1261f0	0.5718069
245	0x3e8b86eb	0.27251372
246	0x3e6712f2	0.22565821
247	0x3ebcb0ef	0.3685374
248	0x3e63f8ff	0.22262953
249	0x3da459ab	0.08024915
250	0x3d89f57c	0.067362756
251	0x3d85d81f	0.065353625
252	0x3e0e591e	0.13901183
253	0x3e251dcf	0.16124652
254	0x3e1b80df	0.15185879
255	0xbb5a40d7	-0.0033302808

conv3.bias f4 [64]
0	0xbef02204	-0.46900952
1	0x3ec48b9b	0.3838776
2	0xbc657e0e	-0.014007105
3	0xbf44aa1d	-0.7682207
4	0xbf111640	-0.56674576
5	0xbc893cb7	-0.016752584
6	0xbf04336a	-0.5164095
7	0xbe26b193	-0.16278677
8	0xbef6940e	-0.48159832
9	0xbf174cca	-0.59101546
10	0xbf3710d1	-0.71510035
11	0x3c83b298	0.016076371
12	0xbf1c7996	-0.61123025
13	0x3c3c6f27	0.01150111
14	0x3e1aaabe	0.15104195
15	0xbd8ed6b4	-0.06974545
16	0xbf0caf5e	-0.5495509
17	0xbeeffb26	-0.468713
18	0xbce6af7d	-0.028159851
19	0xbed284c3	-0.41116914
20	0xbe100277	-0.1406344
21	0xbeb0ee23	-0.34556684
22	0x3de4b617	0.111675434
23	0xbec5a15e	-0.38599676
24	0xbdfac688	-0.12244898
25	0xbde0658f	-0.10956871
26	0x3ee76770	0.45196104
27	0x3ea5a741	0.32354167
28	0xbf4429ca	-0.76626265
29	0xbdafaa94	-0.08577457
30	0xbdd76bac	-0.10518584
31	0xbf19ea7f	-0.6012344
32	0xbe9161ac	-0.2839483
33	0x3f019d75	0.50630885
34	0x3e5f7e9a	0.21825638
35	0xbe4674a3	-0.19380431
36	0xbe756bd6	-0.23966917
37	0x3e3ae2e0	0.18250608
38	0x3e00281b	0.12515299
39	0xbd97b402	-0.07407381
40	0xbeff1e86	-0.49827975
41	0x3ee817f2	0.4533077
42	0xbf306b0a	-0.6891333
43	0x3d9451f8	0.07242197
44	0x3d8203e9	0.06348402
45	0xbf4c8ce7	-0.799025
46	0xbd2901e3	-0.041261565
47	0xbf093fa8	-0.53612757
48	0xbe944f76	-0.28966874
49	0xbdddbc2c	-0.108269066
50	0x3c908d6d	0.017645562
51	0xbd84ebd0	-0.0649029
52	0x3ddd1069	0.107941456
53	0xbebde189	-0.37086132
54	0xbe89909b	-0.26868138
55	0x3cf6687f	0.030079124
56	0x3bbf2c81	0.0058341627
57	0xbf35b7bf	-0.709835
58	0x3ea58cc6	0.32333964
59	0xbefe2804	-0.49639904
60	0xbd3f027c	-0.04663323
61	0x3e9ab65e	0.3021726
62	0xbd4041c0	-0.046937704
63	0xbe6025af	-0.21889375

fc1.weight f4 [128, 64]
0	0x3e8e61e7	0.2780907
1	0xbdf6cde1	-0.12050987
2	0x3e24b7d8	0.16085756
3	0xbdf2745c	-0.118386
4	0xbe8642f2	-0.2622295
5	0xbc063b98	-0.008192919
6	0x3e8521ab	0.2600225
7	0xbdbec678	-0.09315199
8	0xbdf69f12	-0.12042059
9	0x3e81bfde	0.25341696
10	0xbebbcf6a	-0.36681682
11	0xbdb2ee08	-0.08736807
12	0x3e98b56d	0.29825917
13	0x3c331d14	0.010932226
14	0xbd23a4ea	-0.039952196
15	0x3c71f680	0.014768243
16	0xbe8480e5	-0.2587959
17	0xbfa1fd82	-1.265549
18	0xbe9b9ada	-0.3039158
19	0xbdeb2a5d	-0.114826895
20	0xbe30e467	-0.17274629
21	0x3e9c3dc4	0.30515873
22	0x3ce5a839	0.028034316
23	0x3d3c9cea	0.046048082
24	0xbd526a10	-0.05137068
25	0x3e0e68d4	0.13907176
26	0xbd3b5767	-0.04573765
27	0xbc42473e	-0.011857806
28	0x3f27b1d9	0.6550575
29	0xbe25c7b0	-0.16189456
30	0x3e10f0cc	0.14154357
31	0xbe5834ba	-0.21113864
32	0xbd5af073	-0.053451966
33	0x38dcb8bb	0.00010524826
34	0xbe1ae209	-0.15125288
35	0x3df80d6a	0.121119335
36	0x3f0ce3ce	0.550351
37	0x3d9b158e	0.075724706
38	0x3e7a8605	0.24465187
39	0xbd1a9b1e	-0.037745588
40	0x3d2d0262	0.0422386
41	0xbd029fcf	-0.031890687
42	0xbe2ebf13	-0.17065077
43	0xbeacd076	-0.33752793
44	0x3e1d138d	0.1533949
45	0x3e854efa	0.26036817
46	0xbdb519db	-0.08842822
47	0x3f15022d	0.58206445
48	0x3f5bd27e	0.8586806
49	0xbd85c3db	-0.06531497
50	0xbce62637	-0.028094394
51	0xbfa2cfbb	-1.2719644
52	0xbeea8068	-0.4580109
53	0xbe12032b	-0.14259021
54	0x3d2db754	0.042411163
55	0x3c9e1c25	0.01930053
56	0xbd2d67d3	-0.042335343
57	0xbd815660	-0.06315303
58	0xbd550cec	-0.052014276
59	0xbea0553b	-0.31315026
60	0xbdeecabe	-0.11659764
61	0xbf2f08b8	-0.6837268
62	0x3d35fca4	0.04443039
63	0xbecc3545	-0.3988439
64	0x3d5827a8	0.052772194
65	0xbc0abdfa	-0.0084681455
66	0x3fc5db25	1.5457503
67	0xbf211ae3	-0.6293165
68	0xbd5cfca8	-0.05395189
69	0x3c9a56f8	0.018840298
70	0xbe180617	-0.14846073
71	0x3f69f5f9	0.9139095
72	0xbd1a9bf2	-0.037746377
73	0xbcfa4ba9	-0.030553656
74	0x3c98a266	0.018632125
75	0xbce9d6d7	-0.028544826
76	0xbd663558	-0.056203216
77	0xbd46bed0	-0.048521817
78	0xbd087a5d	-0.03331982
79	0xbce2067c	-0.027590983
80	0x3dc2521c	0.09488317
81	0x3f43b669	0.7645021
82	0xbeb10403	-0.34573373
83	0xbc2ea5af	-0.010659619
84	0xbd15ed80	-0.03660345
85	0x3d2598fe	0.040429108
86	0xbda85e3b	-0.08221098
87	0xbd66f7fe	-0.056388848
88	0xbc4c4ca6	-0.012469446
89	0xbdab9ec7	-0.08379894
90	0xbd890afa	-0.06691547
91	0xbd225220	-0.0396291
92	0x3d9f4d9e	0.07778476
93	0x3d8ebc56	0.06969516
94	0xbd3482a9	-0.04406992
95	0xbdfe3ef9	-0.12414355
96	0x3d29d82a	0.041465916
97	0xbdbd6489	-0.09247691
98	0xbeab4ec7	-0.3345854
99	0xbc92981c	-0.017894797
100	0x3e2d8c5c	0.16948074
101	0x3e0c2970	0.13687682
102	0xbddbb387	-0.107276015
103	0x3d5328af	0.05155247
104	0xbc50e06a	-0.012748817
105	0xbd0f0d2d	-0.034924675
106	0x3ffb5435	1.9635073
107	0xbe5b555c	-0.21419281
108	0x3e410de3	0.18852954
109	0x3bd51c8f	0.0065036486
110	0x3d35f823	0.044426095
111	0x3e0940b7	0.13403593
112	0xbd0ad393	-0.03389318
113	0x3b1498de	0.0022674124
114	0xbe019c6e	-0.1265733
115	0x3f89d5b0	1.0768337
116	0xbf37b899	-0.7176605
117	0xbcc69d89	-0.02424504
118	0xbc51d281	-0.012806536
119	0xbbca800d	-0.0061798156
120	0xbbfeafa3	-0.0077724024
121	0xbde69f20	-0.112608194
122	0x3f527b8a	0.82219756
123	0x3d7e80d5	0.062134583
124	0xbd893fb5	-0.06701604
125	0xbd08d4a6	-0.033405922
126	0xbcb568c8	-0.02214469
127	0x40021440	2.032486
128	0xbfbfd96d	-1.4988228
129	0x3e75bcc6	0.23997793
130	0xbe67354b	-0.22578923
131	0xbf45e4e1	-0.77302366
132	0x3db5db8c	0.08879766
133	0x3dd8eca9	0.10592014
134	0xbfe48453	-1.7852882
135	0xbea0c56d	-0.31400624
136	0xbd172994	-0.036904886
137	0xbd05f88e	-0.032707743
138	0xbc029978	-0.00797116
139	0xbd995ad8	-0.0748803
140	0x3ea3a53e	0.31962007
141	0xbbf9ff50	-0.0076293126
142	0x3e8165d6	0.25273007
143	0x3e79595a	0.24350491
144	0x3cbafdb8	0.02282606
145	0x3e07a3ea	0.13246122
146	0xbd683990	-0.05669552
147	0x3d6bec1a	0.05759821
148	0x3e2e7f9e	0.1704087
149	0x3d6d0bf2	0.05787272
150	0xbfeae8d7	-1.8352307
151	0x3e109db6	0.14122662
152	0x3e816f76	0.2528035
153	0xbc1c0fb1	-0.0095252255
154	0x3cad31a5	0.021141836
155	0x3af54298	0.0018711863
156	0xbe3067c9	-0.17227091
157	0xbfa79131	-1.3091184
158	0xc01a1fb5	-2.4081852
159	0xbd0c6c7c	-0.034283146
160	0xbda77ce2	-0.081781164
161	0x3c3facf6	0.011698952
162	0xc01a9c44	-2.4157877
163	0xbfb60f37	-1.4223393
164	0xc004dab8	-2.0758495
165	0xbfa88807	-1.3166512
166	0xbf2a1e77	-0.66452736
167	0xbdfecfe8	-0.12441999
168	0xbe887891	-0.26654485
169	0xbc211778	-0.009832256
170	0x3dfe3166	0.12411766
171	0xbf2c417c	-0.6728742
172	0xbf3c615b	-0.7358605
173	0x3d5df91b	0.054192644
174	0x3d1b041b	0.037845712
175	0x3da19fa1	0.07891775
176	0x3eab5ac4	0.33467686
177	0xbf6535ed	-0.8953541
178	0xbfad258b	-1.3527082
179	0xbe395c44	-0.18101603
180	0x3f6c4800	0.92297363
181	0x3df836f5	0.12119857
182	0xbf4f9229	-0.810824
183	0x3d14389f	0.03618681
184	0xbdd15300	-0.10220909
185	0x3ea02572	0.31278569
186	0xbfb2df2c	-1.3974357
187	0x3e4f1105	0.20221336
188	0xbd86b65f	-0.06577753
189	0x3e90f9b7	0.28315517
190	0xbebd8822	-0.37017924
191	0xbdaaff7a	-0.083495095
192	0xbdf31163	-0.11868551
193	0xbd930fe0	-0.07180762
194	0x3e8a6023	0.27026471
195	0x3c03548c	0.008015763
196	0x3cce9976	0.02521966
197	0xbe1258a5	-0.14291628
198	0xbc331cfc	-0.010932203
199	0x3e3bc2f3	0.18336086
200	0x3a82e560	0.0009986572
201	0x3d138f3f	0.036025282
202	0xbd531976	-0.051537953
203	0x3daa0c14	0.08303085
204	0x3f216502	0.6304475
205	0xbd4cf6d5	-0.050040085
206	0xbe116dd2	-0.1420205
207	0xbe80402d	-0.25048962
208	0xbdd221c0	-0.102603436
209	0xbc811833	-0.01575861
210	0x3c11e8d4	0.008905608
211	0xbc5d21fc	-0.013496872
212	0xbe88d969	-0.2672837
213	0xbe0909b8	-0.13382614
214	0x3e11f31a	0.14252892
215	0x3dda4cdf	0.10659193
216	0x3e70cf46	0.23516569
217	0xbd5cfe04	-0.053953186
218	0x3f0dce9f	0.55393404
219	0x3f123bf4	0.5712273
220	0xbd9dcaaf	-0.077046745
221	0xbd461fbb	-0.048370104
222	0x3d3b4c18	0.045726866
223	0xbd04d73d	-0.03243183
224	0xbe285421	-0.16438343
225	0x3eec6e39	0.46177843
226	0x3e24900e	0.16070578
227	0x3dfbe50b	0.12299546
228	0x3de007ad	0.10938964
229	0xbdffe2b8	-0.12494415
230	0x3e6300a6	0.22168216
231	0x3d7e0c48	0.06202343
232	0x3f408bcb	0.7521331
233	0x3eec2925	0.4612514
234	0x3d57c28c	0.05267577
235	0xbd908c78	-0.07058042
236	0xbe499de9	-0.19689144
237	0x3dac92b7	0.08426421
238	0xbcf183af	-0.029481737
239	0x3d3fbff3	0.046813916
240	0x3f90429b	1.1270326
241	0x3e226b8b	0.15861337
242	0x3f70fcf9	0.94136006
243	0x3d418e32	0.04725475
244	0xbdc7306e	-0.09726034
245	0x3b97b61b	0.004629863
246	0xbddf2166	-0.10895042
247	0x3bf0ac49	0.0073447567
248	0xba81c52b	-0.000990068
249	0x3ef15496	0.47134846
250	0xbde761fe	-0.112979874
251	0xbcd2e759	-0.02574508
252	0x3de7012b	0.1127952
253	0xbb78cdea	-0.0037964531
254	0x3d5110af	0.0510413
255	0xbd76873a	-0.060187556

fc1.bias f4 [128]
0	0x3e834025	0.25634876
1	0x3d92e6bc	0.07172915
2	0x3f155d10	0.5834513
3	0xbe2402d4	-0.16016704
4	0xbea8d3da	-0.3297413
5	0xbdadfc9f	-0.08495449
6	0x3f007b50	0.5018816
7	0x3f232bc9	0.63738686
8	0x3e5e98e8	0.21738017
9	0x3efc1876	0.49237412
10	0x3ed6cd6b	0.41953596
11	0x3e6249ff	0.2209854
12	0xbaedd392	-0.0018144718
13	0xbe2adbe8	-0.1668545
14	0x3e94189d	0.28925028
15	0x3cb693b0	0.02228722
16	0xbe086858	-0.13321054
17	0x3f3347a1	0.7003117
18	0xbc52dbe7	-0.012869812
19	0x3d09501e	0.03352367
20	0x3ec37510	0.3817525
21	0x3f4c602c	0.79834247
22	0x3eb6b32e	0.35683578
23	0x3f006229	0.5014978
24	0x3e8b5f32	0.27221066
25	0x3aeae713	0.0017921649
26	0x3e7d7837	0.2475289
27	0x3ea629fd	0.3245391
28	0x3dd973ae	0.10617767
29	0x3ec334af	0.38126132
30	0x3f05c31a	0.52250826
31	0x3ee2874c	0.44243848
32	0x3f0d82a4	0.55277467
33	0x3f177df3	0.5917656
34	0xbc26bb7a	-0.010176534
35	0x3ef43e2c	0.47703683
36	0x3e650879	0.22366513
37	0xbd07a430	-0.033115566
38	0x3ecd8e0d	0.4014744
39	0x3f4818ba	0.7816273
40	0x3e361e0c	0.177849
41	0x3e2659d6	0.16245207
42	0x3df3ec4f	0.11910307
43	0x3ee4ebda	0.4471119
44	0x3c244590	0.010026351
45	0x3ec37cec	0.38181245
46	0xbea852da	-0.3287571
47	0x3e5d90b7	0.21637236
48	0x3ef9a384	0.48757565
49	0xbe4bd6aa	-0.19906107
50	0x3ed9d845	0.42547813
51	0xbe4f2ea0	-0.2023263
52	0x3be69293	0.007036516
53	0x3ec75cee	0.38938087
54	0x3e908229	0.28224304
55	0x3f48df58	0.78465796
56	0x3e09f126	0.13470897
57	0x3f0af9dd	0.5428751
58	0x3ee08c21	0.4385691
59	0x3f5c1aad	0.85978204
60	0x3e0d49bb	0.13797657
61	0x3e46d585	0.19417389
62	0x3cf52a94	0.02992753
63	0x3e115a3f	0.14194582
64	0x3f1afb53	0.6053974
65	0xbda9e644	-0.08295873
66	0x3e3bd01b	0.18341105
67	0x3e4d351d	0.20039792
68	0x3f0b10fa	0.5432278
69	0x3e81dfa9	0.25365952
70	0x3f181c52	0.59418213
71	0x3e73c5f1	0.23805977
72	0xbe69f56d	-0.22847529
73	0x3efbe84c	0.49200666
74	0x3ee48fe1	0.4464102
75	0x3e888f11	0.2667165
76	0x3eee246b	0.4651216
77	0x3e6ba714	0.23012954
78	0x3f25422d	0.645541
79	0x3e566f22	0.20940831
80	0xbe1b909e	-0.15191886
81	0xbea8ad06	-0.32944506
82	0x3deb5480	0.114907265
83	0x3de32770	0.110915065
84	0x3deeed94	0.11666408
85	0xbd99f177	-0.07516759
86	0x3f6f0fff	0.93383783
87	0x3eccbb34	0.39986575
88	0x3e9c36c7	0.30510542
89	0x3cc830e7	0.024437381
90	0x3ce72c09	0.02821924
91	0x3dd1a22a	0.102360085
92	0xbe817222	-0.2528239
93	0xbe683df9	-0.2267989
94	0x3f0327e0	0.5123272
95	0x3dbd37d4	0.09239164
96	0xbda96f21	-0.08273149
97	0x3f0dad72	0.5534278
98	0x3f5ec1ef	0.8701467
99	0x3f0478db	0.5174691
100	0x3df98a50	0.12184584
101	0x3db9079a	0.09034653
102	0x3ec8e20a	0.39234954
103	0x3d2ab905	0.041680355
104	0xbf82246d	-1.0167366
105	0x3e3d0991	0.1846068
106	0x3e9b0be0	0.30282497
107	0xbe2eae96	-0.17058787
108	0x3ea1889e	0.31549543
109	0x3f3b85e6	0.7325119
110	0x3f68d2c0	0.9094658
111	0x3cdbf70f	0.026851205
112	0xbd805254	-0.06265703
113	0xbe033208	-0.12812054
114	0x3e98af9d	0.29821482
115	0xbe9e5cf5	-0.30930296
116	0x3f37f8b1	0.7186385
117	0x3de7a76e	0.113112316
118	0x3ec5f5dc	0.38664138
119	0x3f02eb22	0.51140034
120	0x3efef2bf	0.49794576
121	0x3e65736b	0.2240731
122	0x3f475f36	0.77879655
123	0x3eb46e3d	0.35240355
124	0x3dd0748c	0.101784796
125	0x3ed4846e	0.41507286
126	0x3e99a112	0.300057
127	0x3e588384	0.21143919

fc2.weight f4 [50, 128]
0	0xbd8ca418	-0.06867236
1	0x3d247819	0.040153597
2	0xbd9c143c	-0.07621047
3	0x3db8ca02	0.09022905
4	0xbedd6514	-0.4324118
5	0xbe167030	-0.14691234
6	0x3dcc3258	0.0997054
7	0x3e9dad70	0.30796385
8	0x3e87f710	0.2655568
9	0xbed35815	-0.4127814
10	0xbfa5185d	-1.289806
11	0xbea66c18	-0.32504344
12	0x3d33c915	0.04389294
13	0x3d087296	0.033312403
14	0xbe776086	-0.24157915
15	0xbe171e72	-0.14757708
16	0x3e907bb1	0.2821937
17	0xbfde31ef	-1.7358989
18	0xbd1ed70c	-0.038779303
19	0xbf85b8ae	-1.0446985
20	0xbfc8956d	-1.5670601
21	0xc0053261	-2.0812
22	0xbf86ab99	-1.0521117
23	0xbdd8d9dd	-0.10588429
24	0xbe01ff18	-0.12694967
25	0xbfc7c0ab	-1.5605673
26	0xbe9bddea	-0.30442744
27	0x3eead912	0.45868737
28	0x3efcb780	0.4935875
29	0x3e55b801	0.20870973
30	0x3f2c635d	0.67339116
31	0x3e6ff98b	0.23435037
32	0xbf24ab38	-0.6432376
33	0x3da79625	0.08182935
34	0xb95fbe49	-0.00021337824
35	0x3eb6cb99	0.35702208
36	0x3ed9358f	0.42423674
37	0x3dd77bb6	0.10521643
38	0xbf75c9f3	-0.96011275
39	0xbe6f07d5	-0.23342831
40	0xbf3b7777	-0.73229164
41	0xbf33f089	-0.702889
42	0x3dfdbc1b	0.12389394
43	0xbe840031	-0.25781396
44	0x3e3bac3c	0.18327421
45	0xbef6ae29	-0.4817975
46	0x3ea141e1	0.31495574
47	0xbf2023ad	-0.62554437
48	0xbf89408c	-1.0722823
49	0xbfacda31	-1.3504087
50	0xbf9527c2	-1.1652758
51	0xbf0b0eff	-0.5431976
52	0x3e17390f	0.1476786
53	0x3e34fd50	0.17674756
54	0x3db61eb8	0.08892578
55	0xbef1a3bd	-0.47195235
56	0xbf606b5d	-0.87663823
57	0xbc8791ca	-0.01654901
58	0x3ee11864	0.4396392
59	0xbd375884	-0.04476215
60	0x3e3abb17	0.18235432
61	0x3e1faa86	0.15592393
62	0xbfc0229a	-1.501056
63	0xbebaf24b	-0.3651298
64	0xbf11289c	-0.5670259
65	0x3e7ffa7b	0.24997894
66	0xbe795d94	-0.24352103
67	0x3e078a1b	0.13236277
68	0xbfe117ed	-1.7585427
69	0xbf51d66a	-0.81967795
70	0xbf513e92	-0.817361
71	0xbdc964d8	-0.098336875
72	0xbca25c21	-0.019819321
73	0xbf362d64	-0.7116301
74	0x3ef75efe	0.4831466
75	0xbe16689b	-0.14688341
76	0x3f111893	0.5667812
77	0x3e5a3370	0.21308684
78	0xbf580491	-0.8438197
79	0x3d95fd87	0.07323747
80	0xbedc9bd0	-0.43087626
81	0xbe3c161b	-0.18367808
82	0x3dd96f74	0.10616961
83	0xbfbe4b9a	-1.4866822
84	0x3ddb5c4a	0.10710962
85	0x3da41247	0.080112986
86	0xbdc53133	-0.09628525
87	0xbe2b6cf1	-0.16740777
88	0xbdaccf83	-0.08438017
89	0xbdcb8757	-0.099379234
90	0xc01557b8	-2.333479
91	0xbf134ff5	-0.5754388
92	0xbeff874a	-0.49907905
93	0x3c278ee6	0.010226941
94	0xbcc17f45	-0.023620257
95	0xbf5828ca	-0.8443724
96	0xbfc03650	-1.5016575
97	0x3ef54bb2	0.47909313
98	0xbe176ce8	-0.14787638
99	0x3c3f7d26	0.011687553
100	0x3e156e53	0.14592867
101	0xbea00a76	-0.3125798
102	0xbd9ff280	-0.07809925
103	0xbc3fad9b	-0.011699106
104	0xbf9774fc	-1.1832576
105	0xbf0d7c25	-0.55267555
106	0xbf4c41e7	-0.7978806
107	0xbdc0af09	-0.09408385
108	0xbf3003c9	-0.68755776
109	0x3d451af5	0.04812141
110	0xbfcaafc8	-1.5834894
111	0x3e298a4f	0.16556667
112	0xbde78cd5	-0.113061585
113	0xbf6d33f0	-0.92657375
114	0xbe37341b	-0.1789097
115	0xbfa1db90	-1.264513
116	0xbdde7320	-0.10861802
117	0x3d3fb0c8	0.04679945
118	0xbf02bb29	-0.51066834
119	0xbefe133f	-0.4962406
120	0x3ec4681a	0.38360673
121	0xbfd0d69d	-1.6315495
122	0xbe23af5e	-0.15984866
123	0xbde4c7e8	-0.111709416
124	0xbf352211	-0.70755106
125	0xbf992f03	-1.1967472
126	0x3dedf5d6	0.11619155
127	0xbf4f5386	-0.8098682
128	0x3db22f20	0.08700395
129	0xbdbca627	-0.092113785
130	0xbf277261	-0.65408903
131	0x3e1f1524	0.15535408
132	0xbf610833	-0.87903136
133	0x3d9d9aa9	0.07695515
134	0xc006aa4d	-2.1041443
135	0xbef4a837	-0.47784588
136	0xbf22e823	-0.6363546
137	0xbf0ca058	-0.54932165
138	0xbf75a1a8	-0.9594979
139	0xbffae43c	-1.9600902
140	0x3e1eed80	0.15520287
141	0x3e37d7c0	0.17953396
142	0x3e2b64ea	0.16737714
143	0xbd5f6b3f	-0.054545637
144	0xbfa987f9	-1.324462
145	0x3b907249	0.004408155
146	0x3e42e569	0.19032826
147	0xbe40fd12	-0.18846539
148	0xbf3a6a89	-0.7281881
149	0xbfbef9a4	-1.4919934
150	0xbfea6c89	-1.8314372
151	0x3e84fb64	0.25973046
152	0xbf7bcb61	-0.98357207
153	0xbfab50ea	-1.3384068
154	0xbfb8e532	-1.4444945
155	0xbf9a85b3	-1.2072052
156	0x3e1a7723	0.1508451
157	0x3d7e7e43	0.06213213
158	0xbeb94845	-0.3618795
159	0xbedae87a	-0.4275549
160	0xc068a7d5	-3.6352437
161	0xbe1a441a	-0.15065041
162	0x3e081f02	0.13293079
163	0xbef4624d	-0.47731248
164	0xc018ffc6	-2.3906112
165	0x3e15f55c	0.14644378
166	0x3e2701e4	0.16309315
167	0xbff9399d	-1.9470707
168	0xc00c6068	-2.1933842
169	0x3dd1ab77	0.102377824
170	0x3e838c2e	0.25692886
171	0xc0a1114e	-5.0333624
172	0xbe1b3280	-0.15155983
173	0xbe9ff7cb	-0.3124374
174	0xc01ea75c	-2.4789648
175	0xc01becac	-2.4363203
176	0xbfaa6fe1	-1.3315393
177	0xbfc003ca	-1.5001156
178	0xbfb03ef5	-1.3769213
179	0x3d51e556	0.051244102
180	0x3dbbbf3b	0.09167334
181	0xbfc5db98	-1.545764
182	0x3db444d2	0.08802189
183	0xbfbf9925	-1.4968611
184	0xbef462ff	-0.47731778
185	0xc01b88ca	-2.430224
186	0xbe55efc8	-0.2089225
187	0xbf0f19d4	-0.55898786
188	0x3e00f211	0.12592341
189	0xbea9802a	-0.33105594
190	0xbf082e6c	-0.53195834
191	0xbf8caa6d	-1.098951
192	0xc00c508c	-2.1924162
193	0xbfc7b588	-1.5602274
194	0xc0299ad2	-2.6500745
195	0xbd8360cb	-0.06414946
196	0xbfbd02fc	-1.4766536
197	0xbf2a84f6	-0.6660913
198	0xbfd17395	-1.6363398
199	0xc0489f95	-3.13474
200	0xc027d044	-2.6220865
201	0xbe85f8e0	-0.2616644
202	0xbfdda457	-1.7315778
203	0xc011ff29	-2.2811987
204	0xbf883a84	-1.0642858
205	0xbeb7b2de	-0.35878652
206	0xbf813092	-1.0092947
207	0x3d1248fd	0.03571414
208	0xbfcdf715	-1.6091028
209	0xbfc68093	-1.5507988
210	0x3e7fc72b	0.2497832
211	0xbecc4b17	-0.3990104
212	0x3e0d4227	0.13794766
213	0x3dfe3da5	0.124141015
214	0x3d5a0aaa	0.053232826
215	0x3c94f9bc	0.018185489
216	0xbfc2229b	-1.5166811
217	0x3e15306d	0.14569254
218	0xbfabc49c	-1.3419375
219	0x3dc71971	0.097216494
220	0xbf77287e	-0.9654616
221	0xbb560e95	-0.00326625
222	0xbee90e25	-0.45518604
223	0x3df68513	0.12037101
224	0xbda835fe	-0.08213423
225	0x3e9c4e61	0.30528548
226	0x3ea1dfb5	0.31615987
227	0x3da2bb5f	0.079458944
228	0x3e35f56c	0.17769402
229	0x3c4b6cd8	0.012416087
230	0xbf30621a	-0.6889969
231	0x3dc821ab	0.09772047
232	0xbf8404b2	-1.0313933
233	0xc0702c59	-3.7527068
234	0x3de47bbc	0.11156413
235	0xbe0fbc16	-0.14036593
236	0xbcf49863	-0.02985782
237	0xbe8c756c	-0.27433336
238	0xbfc5e0c2	-1.5459216
239	0x3ea4edbe	0.32212633
240	0xc022eacb	-2.5455806
241	0xbf03811e	-0.5136889
242	0x3b21eeb2	0.0024708924
243	0xc061ca51	-3.5279734
244	0xbe36398c	-0.1779539
245	0x3e68394a	0.22678104
246	0xbecf89d6	-0.40534848
247	0xc02c01ff	-2.6876218
248	0x3e87a3ac	0.2649206
249	0xbfd25eec	-1.6435218
250	0xbea861de	-0.32887167
251	0xbf0309fc	-0.5118711
252	0xbf0886e5	-0.5333083
253	0xc00f7379	-2.241423
254	0x3e0df4de	0.1386294
255	0xc0290fb6	-2.641584

fc2.bias f4 [50]
0	0xbbdfadd3	-0.0068261414
1	0x3fb2ad2d	1.3959099
2	0x3f52cdcc	0.8234527
3	0x3f432a9c	0.7623689
4	0xbf3a08ec	-0.72669864
5	0xbe705e9d	-0.23473592
6	0x3f9620e0	1.1728783
7	0x3f1b5d30	0.6068907
8	0x3ecc3a3f	0.39888188
9	0xbf18823d	-0.5957373
10	0xbf9c5707	-1.2214059
11	0x3e428025	0.18994196
12	0x3ef01a68	0.46895146
13	0xbfc5e241	-1.5459672
14	0x3eb62d13	0.35581264
15	0xbd95ef08	-0.07320982
16	0xbed9d93d	-0.42548552
17	0x3fcc6744	1.5969014
18	0x3fb64153	1.4238685
19	0x3e6048c3	0.21902756
20	0x3dbfb4e4	0.09360674
21	0x3f33a87d	0.7017897
22	0xbf9ab904	-1.2087712
23	0xbf05c501	-0.5225373
24	0x3f48f4a7	0.7849831
25	0xbf825798	-1.0182981
26	0x3f415de1	0.7553387
27	0xbe448d42	-0.1919451
28	0x3f78a568	0.9712739
29	0x3f66492c	0.899554
30	0xbde2ae2e	-0.110683784
31	0xbed81dfe	-0.42210382
32	0xbd618d04	-0.055066124
33	0xbea4a001	-0.32153323
34	0x3f80a411	1.0050069
35	0x3dad9712	0.0847608
36	0xbe28f7e3	-0.16500811
37	0xc032652f	-2.7874258
38	0xbfe206a5	-1.7658278
39	0x3dccc57f	0.09998607
40	0xbf3025f6	-0.68807924
41	0x3de16206	0.110050246
42	0xbeedb27b	-0.46425232
43	0x3d7cc40c	0.061710402
44	0xbfacecb4	-1.3509736
45	0x3f954eeb	1.1664709
46	0x3da0edb9	0.07857842
47	0x3df8ed3f	0.12154626
48	0xbf187bc7	-0.5956387
49	0xbf968a76	-1.1761005
